…
118/118 [==============================] - 45s 377ms/step - loss: 0.1950 - accuracy: 0.9278 - val_loss: 0.4542 - val_accuracy: 0.8654
Epoch 9/10
118/118 [==============================] - 46s 390ms/step - loss: 0.1773 - accuracy: 0.9283 - val_loss: 0.4705 - val_accuracy: 0.8486
Epoch 10/10
118/118 [==============================] - 46s 390ms/step - loss: 0.1805 - accuracy: 0.9346 - val_loss: 0.3744 - val_accuracy: 0.8798
<keras.callbacks.History object at 0x0000017FF162EFD0>



_________________________________________________________________
 Layer (type)                Output Shape              Param #
=================================================================
 conv2d (Conv2D)             (None, 62, 62, 64)        1792

 batch_normalization (BatchN  (None, 62, 62, 64)       256
 ormalization)

 max_pooling2d (MaxPooling2D  (None, 31, 31, 64)       0
 )

 flatten (Flatten)           (None, 61504)             0

 dense (Dense)               (None, 128)               7872640

 dropout (Dropout)           (None, 128)               0

 dense_1 (Dense)             (None, 128)               16512

 dropout_1 (Dropout)         (None, 128)               0

 dense_2 (Dense)             (None, 1)                 129

=================================================================
Total params: 7,891,329
Trainable params: 7,891,201
Non-trainable params: 128
_________________________________________________________________

RESULTADO VALIDAÇÃO

Normal:
Probabilidade de ter Pneumonia: 0.1 %

Doente:
Probabilidade de ter Pneumonia: 89.4 %
